…
userId":"17518714522429279301"},"user_tz":-330},"id":"xOqjumBCY32p","outputId":"d3db570c-d685-4a6a-cfd4-16b638428440"},"outputs":[{"output_type":"stream","name":"stdout","text":["(?, 128, 64, 3)\n","Model: \"critic\"\n","_________________________________________________________________\n"," Layer (type)                Output Shape              Param #   \n","=================================================================\n"," input_3 (InputLayer)        [(None, 128, 64, 3)]      0         \n","                                                                 \n"," conv2d (Conv2D)             (None, 64, 32, 32)        2432      \n","                                                                 \n"," dropout (Dropout)           (None, 64, 32, 32)        0         \n","                                                                 \n"," conv2d_1 (Conv2D)           (None, 32, 16, 64)        51264     \n","                                                                 \n"," dropout_1 (Dropout)         (None, 32, 16, 64)        0         \n","                                                                 \n"," instance_normalization (Ins  (None, 32, 16, 64)       2         \n"," tanceNormalization)                                             \n","                                                                 \n"," conv2d_2 (Conv2D)           (None, 16, 8, 64)         102464    \n","                                                                 \n"," dropout_2 (Dropout)         (None, 16, 8, 64)         0         \n","                                                                 \n"," instance_normalization_1 (I  (None, 16, 8, 64)        2         \n"," nstanceNormalization)                                           \n","                                                                 \n"," conv2d_3 (Conv2D)           (None, 8, 4, 64)          102464    \n","                                                                 \n"," dropout_3 (Dropout)         (None, 8, 4, 64)          0         \n","                                                                 \n"," instance_normalization_2 (I  (None, 8, 4, 64)         2         \n"," nstanceNormalization)                                           \n","                                                                 \n"," conv2d_4 (Conv2D)           (None, 4, 2, 64)          102464    \n","                                                                 \n"," dropout_4 (Dropout)         (None, 4, 2, 64)          0         \n","                                                                 \n"," instance_normalization_3 (I  (None, 4, 2, 64)         2         \n"," nstanceNormalization)                                           \n","                                                                 \n"," flatten (Flatten)           (None, 512)               0         \n","                                                                 \n"," dense (Dense)               (None, 512)               262656    \n","                                                                 \n","=================================================================\n","Total params: 623,752\n","Trainable params: 623,752\n","Non-trainable params: 0\n","_________________________________________________________________\n"]}],"source":["# Discriminator initialization\n","c_input=Input(shape=c_input_shape)\n","print(c_in
…
